…
    upfall    : 964

Normalisierung:
  ax: mean=-0.398497, std=5.280029
  ay: mean=-3.838278, std=7.181847
  az: mean=0.067399, std=5.404028
  gx: mean=-0.007970, std=0.721440
  gy: mean=0.013070, std=0.650920
  gz: mean=0.003480, std=0.538436
  gmag: mean=0.548270, std=0.961524
Model: "functional"
┏━━━━━━━━━━━━━━━━━━━━━━━━━━━━━━━━━━━━━━┳━━━━━━━━━━━━━━━━━━━━━━━━━━━━━┳━━━━━━━━━━━━━━━━━┓
┃ Layer (type)                         ┃ Output Shape                ┃         Param # ┃
┡━━━━━━━━━━━━━━━━━━━━━━━━━━━━━━━━━━━━━━╇━━━━━━━━━━━━━━━━━━━━━━━━━━━━━╇━━━━━━━━━━━━━━━━━┩
│ sensor_window (InputLayer)           │ (None, 150, 7)              │               0 │
├──────────────────────────────────────┼─────────────────────────────┼─────────────────┤
│ conv1d (Conv1D)                      │ (None, 150, 32)             │           1,600 │
├──────────────────────────────────────┼─────────────────────────────┼─────────────────┤
│ batch_normalization                  │ (None, 150, 32)             │             128 │
│ (BatchNormalization)                 │                             │                 │
├──────────────────────────────────────┼─────────────────────────────┼─────────────────┤
│ max_pooling1d (MaxPooling1D)         │ (None, 75, 32)              │               0 │
├──────────────────────────────────────┼─────────────────────────────┼─────────────────┤
│ dropout (Dropout)                    │ (None, 75, 32)              │               0 │
├──────────────────────────────────────┼─────────────────────────────┼─────────────────┤
│ conv1d_1 (Conv1D)                    │ (None, 75, 64)              │          10,304 │
├──────────────────────────────────────┼─────────────────────────────┼─────────────────┤
│ batch_normalization_1                │ (None, 75, 64)              │             256 │
│ (BatchNormalization)                 │                             │                 │
├──────────────────────────────────────┼─────────────────────────────┼─────────────────┤
│ max_pooling1d_1 (MaxPooling1D)       │ (None, 37, 64)              │               0 │
├──────────────────────────────────────┼─────────────────────────────┼─────────────────┤
│ dropout_1 (Dropout)                  │ (None, 37, 64)              │               0 │
├──────────────────────────────────────┼─────────────────────────────┼─────────────────┤
│ conv1d_2 (Conv1D)                    │ (None, 37, 128)             │          24,704 │
├──────────────────────────────────────┼─────────────────────────────┼─────────────────┤
│ batch_normalization_2                │ (None, 37, 128)             │             512 │
│ (BatchNormalization)                 │                             │                 │
├──────────────────────────────────────┼─────────────────────────────┼─────────────────┤
│ max_pooling1d_2 (MaxPooling1D)       │ (None, 18, 128)             │               0 │
├──────────────────────────────────────┼─────────────────────────────┼─────────────────┤
│ dropout_2 (Dropout)                  │ (None, 18, 128)             │               0 │
├──────────────────────────────────────┼─────────────────────────────┼─────────────────┤
│ conv1d_3 (Conv1D)                    │ (None, 18, 128)             │          49,280 │
├──────────────────────────────────────┼─────────────────────────────┼─────────────────┤
│ batch_normalization_3                │ (None, 18, 128)             │             512 │
│ (BatchNormalization)                 │                             │                 │
├──────────────────────────────────────┼─────────────────────────────┼─────────────────┤
│ global_average_pooling1d             │ (None, 128)                 │               0 │
│ (GlobalAveragePooling1D)             │                             │                 │
├──────────────────────────────────────┼─────────────────────────────┼─────────────────┤
│ dense (Dense)                        │ (None, 96)                  │          12,384 │
├──────────────────────────────────────┼─────────────────────────────┼─────────────────┤
│ dropout_3 (Dropout)                  │ (None, 96)                  │               0 │
├──────────────────────────────────────┼─────────────────────────────┼─────────────────┤
│ class_probabilities (Dense)          │ (None, 4)                   │             388 │
└──────────────────────────────────────┴─────────────────────────────┴─────────────────┘
 Total params: 100,068 (390.89 KB)
 Trainable params: 99,364 (388.14 KB)
 Non-trainable params: 704 (2.75 KB)


Class Weights:
  0 ruhig_alltag          : 1.3466
  1 normale_bewegung      : 0.8998
  2 fallaehnlich_aber_ok  : 0.9538
  3 sturz                 : 0.9111

Test Loss: 0.2196
Test Accuracy: 0.9372

…
